…
road part of the track (the model was intentionally trained to choice this path), in case of touching tyres (considered not dangerous for passenger), you could push revers and model will amnage to find the way out.

Final model training log with details is below:
____________________________________________________________________________________________________
Layer (type)                     Output Shape          Param #     Connected to                     
====================================================================================================
convolution2d_1 (Convolution2D)  (None, 32, 32, 24)    1824        convolution2d_input_1[0][0]      
____________________________________________________________________________________________________
elu_1 (ELU)                      (None, 32, 32, 24)    0           convolution2d_1[0][0]            
____________________________________________________________________________________________________
convolution2d_2 (Convolution2D)  (None, 16, 16, 36)    21636       elu_1[0][0]                      
____________________________________________________________________________________________________
elu_2 (ELU)                      (None, 16, 16, 36)    0           convolution2d_2[0][0]            
____________________________________________________________________________________________________
dropout_1 (Dropout)              (None, 16, 16, 36)    0           elu_2[0][0]                      
____________________________________________________________________________________________________
maxpooling2d_1 (MaxPooling2D)    (None, 8, 8, 36)      0           dropout_1[0][0]                  
____________________________________________________________________________________________________
convolution2d_3 (Convolution2D)  (None, 6, 6, 48)      15600       maxpooling2d_1[0][0]             
____________________________________________________________________________________________________
elu_3 (ELU)                      (None, 6, 6, 48)      0           convolution2d_3[0][0]            
____________________________________________________________________________________________________
dropout_2 (Dropout)              (None, 6, 6, 48)      0           elu_3[0][0]                      
____________________________________________________________________________________________________
convolution2d_4 (Convolution2D)  (None, 4, 4, 64)      27712       dropout_2[0][0]                  
____________________________________________________________________________________________________
elu_4 (ELU)                      (None, 4, 4, 64)      0           convolution2d_4[0][0]            
____________________________________________________________________________________________________
dropout_3 (Dropout)              (None, 4, 4, 64)      0           elu_4[0][0]                      
____________________________________________________________________________________________________
flatten_1 (Flatten)              (None, 1024)          0           dropout_3[0][0]                  
____________________________________________________________________________________________________
dense_1 (Dense)                  (None, 1164)          1193100     flatten_1[0][0]                  
____________________________________________________________________________________________________
elu_5 (ELU)                      (None, 1164)          0           dense_1[0][0]                    
____________________________________________________________________________________________________
dense_2 (Dense)                  (None, 100)           116500      elu_5[0][0]                      
____________________________________________________________________________________________________
elu_6 (ELU)                      (None, 100)           0           dense_2[0][0]                    
____________________________________________________________________________________________________
dense_3 (Dense)                  (None, 50)            5050        elu_6[0][0]                      
____________________________________________________________________________________________________
elu_7 (ELU)                      (None, 50)            0           dense_3[0][0]                    
____________________________________________________________________________________________________
dense_4 (Dense)                  (None, 1)             51          elu_7[0][0]                      
====================================================================================================
Total params: 1,381,473
Trainable params: 1,381,473
Non-trainable params: 0
____________________________________________________________________________________________________
Epoch 1/5
77312/77312 [==============================] - 799s - loss: 0.0339 - val_loss: 2.8290e-05
…
